Models/modelOptimized.tflite (tflite, 264960 bytes, 17 tensors)

sequential/conv2d_4/BiasAdd;sequential/conv2d_3/Conv2D;sequential/conv2d_4/Conv2D;conv2d_4/bias f4 [64]
0	0xbc1d1c79	-0.009589308
1	0xbcc0b57a	-0.023524035
2	0x3d0653de	0.032794826
3	0x3e91cd57	0.28476974
4	0xbcdc4a97	-0.026891036
5	0xbd1f0962	-0.038827308
6	0xbc32532d	-0.010884088
7	0x3bea8b44	0.007157715
8	0xbcac2b0e	-0.021016624
9	0xbc5f6c3d	-0.013636646
10	0x3e2379a3	0.1596437
11	0xbcb2be97	-0.021819396
12	0xbdb731c3	-0.08945038
13	0xba71301e	-0.00092005904
14	0xbcc13e81	-0.023589374
15	0x3cd4b5d7	0.025965614
16	0xbc5b412f	-0.01338224
17	0xbbd071f7	-0.006361242
18	0x3d245f05	0.04012968
19	0x3d35e4f7	0.04440781
20	0x3d042820	0.03226483
21	0xbd83180e	-0.064010724
22	0x3e0f86bc	0.14016241
23	0xbbf7f07d	-0.0075665102
24	0xbc88f783	-0.016719585
25	0xbc9ebb5c	-0.01937645
26	0xbc114601	-0.008866788
27	0xbd655f4f	-0.055999096
28	0xbb8f9bfa	-0.0043826075
29	0xbd19f25a	-0.03758464
30	0x3d1733ac	0.036914513
31	0x3e21dd63	0.15807109
32	0xbc345f60	-0.011009067
33	0xbcf11006	-0.029426586
34	0x3e389fa0	0.18029642
35	0xbcbcfa68	-0.023068622
36	0xbc87b976	-0.016567927
37	0x3d8a5b30	0.06755674
38	0xbc27fdc3	-0.010253373
39	0xbb7adc20	-0.0038278177
40	0xbc8ee80e	-0.017444637
41	0x3e5bfc1c	0.21482891
42	0xbafc89a8	-0.0019267099
43	0xbd0cb87e	-0.034355633
44	0x3d02c8b4	0.031929687
45	0x3d8b72b7	0.068089895
46	0xbc484b0c	-0.012224924
47	0xbccffa59	-0.02538793
48	0xbc482df9	-0.012217992
49	0xbd5bc898	-0.053658098
50	0x3db6a1ef	0.08917605
51	0xbbe05f72	-0.0068473155
52	0xbc7254c6	-0.014790719
53	0xbb979304	-0.00462568
54	0x3c5f84fc	0.013642546
55	0xbc58c34a	-0.013230154
56	0x3dd5f191	0.10446466
57	0xbb9d12b8	-0.004793491
58	0xbcf0f388	-0.029413
59	0x3de97835	0.11399881
60	0xbc1e2010	-0.009651199
61	0xbcca505a	-0.024696518
62	0xbdcc867f	-0.099865906
63	0x3ca363f0	0.019945115

sequential/conv2d_3/BiasAdd;sequential/conv2d_3/Conv2D;conv2d_3/bias f4 [64]
0	0xbd8ee24a	-0.06976755
1	0xbcd7ad16	-0.026327651
2	0xbc9b863b	-0.018984905
3	0x3d7aff26	0.061278485
4	0x3d28eb89	0.04124025
5	0x3d6f5b54	0.058436707
6	0x3e0ba064	0.13635403
7	0xbd022b12	-0.031779356
8	0x3b1331ae	0.0022460031
9	0x3d5eed01	0.054425243
10	0xbc4b0668	-0.012391664
11	0xbb5cffa5	-0.0033721712
12	0x3d35decd	0.044401933
13	0x3e7ddccd	0.2479126
14	0x3bd9d714	0.0066479538
15	0xbca86c36	-0.020559411
16	0x3e0d7056	0.13812384
17	0xbca77a8e	-0.02044418
18	0xbe8bdd95	-0.2731749
19	0xbcab6e35	-0.020926574
20	0xbc2b14eb	-0.010441999
21	0xbdd98037	-0.10620158
22	0xbcb07b15	-0.021543065
23	0xbb9bacc1	-0.0047508185
24	0xbd92114f	-0.071322076
25	0xbbb076a4	-0.005385237
26	0x3c6edcaa	0.014578978
27	0xbd2a576a	-0.04158727
28	0xbceb4e74	-0.028723933
29	0xbc1c0cbc	-0.0095245205
30	0xbca52063	-0.020157045
31	0x3d1147e8	0.035468966
32	0x3d9df07a	0.07711883
33	0x3dfff435	0.12497751
34	0xbb79b83a	-0.0038104192
35	0xbcb2b956	-0.02181689
36	0xbb0fa7a4	-0.002191999
37	0x3cc8e7cf	0.024524597
38	0xbd008fe1	-0.031387214
39	0x3d6814a1	0.0566603
40	0xbd263e26	-0.040586613
41	0xbc12f414	-0.008969326
42	0x3d01d432	0.031696506
43	0x3c3f3005	0.011669164
44	0xbca6f7ad	-0.020381773
45	0x3e25e90d	0.16202183
46	0x3c9bfc4c	0.019041203
47	0xbd1af2c4	-0.037829176
48	0xbdac50f7	-0.0841388
49	0xbbe0331c	-0.00684203
50	0xbd8a0324	-0.0673888
51	0x3d3b872a	0.0457832
52	0x3c4abf77	0.01237475
53	0xbc990661	-0.0186798
54	0x3dad6195	0.08465878
55	0x3df7fa57	0.121082954
56	0xbc8f316e	-0.017479625
57	0x3dfa1727	0.12211447
58	0x3d90e4ab	0.07074865
59	0xbd1fe66c	-0.039038107
60	0xbd06833c	-0.03284
61	0x3d406eb5	0.04698058
62	0x3dd63925	0.10460118
63	0x3b5963eb	0.0033171128

sequential/conv2d_2/BiasAdd;sequential/conv2d_2/Conv2D;conv2d_2/bias f4 [48]
0	0xbcbb78f9	-0.022884833
1	0xbcb0d1c1	-0.021584393
2	0xbc440034	-0.011962939
3	0xbced8fe5	-0.028999278
4	0xbbf84fe3	-0.0075778826
5	0xbc50994c	-0.012731861
6	0xbc8783dc	-0.016542368
7	0xbcd13ef1	-0.025542708
8	0xbb6633ec	-0.0035126163
9	0x3d9c0bad	0.076194145
10	0xbbc4c9d8	-0.006005507
11	0xbc974801	-0.018466951
12	0xbca684db	-0.020327022
13	0xbb1b4383	-0.0023691363
14	0x3da2a2ba	0.07941194
15	0xbd126160	-0.035737395
16	0xbc4bbcde	-0.012435166
17	0xbc4d9d92	-0.012549775
18	0xbd326831	-0.043556396
19	0xbb13440c	-0.002247098
20	0xba8f2c0d	-0.0010923162
21	0xbcd49607	-0.025950445
22	0x3beeba06	0.0072853593
23	0xbba23fe8	-0.004951466
24	0xbd3b7e75	-0.045774896
25	0xbc9c86a7	-0.019107176
26	0xbc17fee3	-0.009277078
27	0xbc8a9bab	-0.016919931
28	0xbbb62723	-0.0055588647
29	0xbd3b3801	-0.045707706
30	0xbc6a8932	-0.0143149365
31	0xbc0aad85	-0.008464222
32	0xbc61a94a	-0.013773272
33	0xbb65ac84	-0.0035045454
34	0xbc93f65b	-0.018061807
35	0xbbed7f85	-0.0072478675
36	0x3ca2d3c3	0.019876366
37	0xbdcc7f09	-0.099851675
38	0xbc974d64	-0.01846952
39	0xbb8ec0d3	-0.0043564825
40	0xbd0e5828	-0.03475204
41	0xbc9d45a4	-0.019198246
42	0x3c410ad2	0.011782365
43	0xbca332e9	-0.019921737
44	0xbdf0a279	-0.11749739
45	0xb9384656	-0.0001757381
46	0x3b412dfe	0.0029476876
47	0xbbf7836d	-0.007553509

sequential/conv2d_1/BiasAdd;sequential/conv2d_1/Conv2D;conv2d_1/bias f4 [36]
0	0x3c8fe938	0.017567262
1	0x3ddf5359	0.10904569
2	0xbb14ba6e	-0.0022694129
3	0xb935e989	-0.00017348504
4	0x3c9bfe67	0.019042207
5	0xbcf55f7c	-0.029952757
6	0xbe248d7f	-0.16069601
7	0xbe2c2d67	-0.16814195
8	0xbcacf195	-0.021111289
9	0xbed72245	-0.42018333
10	0xbedf5f0d	-0.43627205
11	0xbcdc2e53	-0.026877558
12	0xbc93d8fb	-0.0180478
13	0xbc8b165b	-0.016978433
14	0xbcbaa060	-0.02278155
15	0xbcbf7704	-0.02337218
16	0xbd546338	-0.051852435
17	0xbc8f5a00	-0.01749897
18	0x3cd36b23	0.025807923
19	0x38deef35	0.00010630341
20	0xbf17c70b	-0.5928809
21	0xbd445025	-0.047927994
22	0xbc6edb64	-0.014578674
23	0xbd0c526b	-0.034258287
24	0xbc8dab93	-0.017293727
25	0x3dcec2ee	0.10095774
26	0xbec4fce4	-0.3847419
27	0xbe156084	-0.14587599
28	0xbb8e1b80	-0.0043367743
29	0xbab5cd19	-0.0013870328
30	0xba996ad6	-0.0011704813
31	0x3e188ea6	0.14898166
32	0xbdf7be95	-0.120968975
33	0x3d33d324	0.04390253
34	0x3d8473c2	0.064673916
35	0xbcf77ca8	-0.030210808

sequential/conv2d/BiasAdd;sequential/conv2d/Conv2D;conv2d/bias f4 [24]
0	0xbb8d9bed	-0.0043215663
1	0xbc94d9ab	-0.018170198
2	0xbc7342bf	-0.0148474565
3	0xbb497a3e	-0.0030743028
4	0xbc7559e3	-0.014975044
5	0xbbe78262	-0.0070651034
6	0xbc2cf652	-0.010556774
7	0xbc0da13f	-0.008644401
8	0xbbab14e2	-0.0052209953
9	0x00000000	0.0
10	0xbbfc9aa6	-0.007708865
11	0xbbbd480d	-0.0057764114
12	0xbbd11e8d	-0.0063818158
13	0xbc8f0165	-0.01745672
14	0xbc4ab08f	-0.012371196
15	0xbbecaea4	-0.007222967
16	0xbba74d50	-0.005105652
17	0xbc0f1cda	-0.008734906
18	0xbc4bb480	-0.012433171
19	0xbc36bd6f	-0.011153563
20	0xbc65e0c4	-0.014030639
21	0xbc137f9c	-0.009002592
22	0xbbc21094	-0.0059223864
23	0xbd4e4e51	-0.050367657

sequential/conv2d_4/Conv2D i1 [64, 3, 3, 64]
0	0xdd	-35
1	0xc2	-62
2	0xaf	-81
3	0x95	-107
4	0x24	36
5	0x3e	62
6	0xe5	-27
7	0x93	-109
8	0x39	57
9	0xf3	-13
10	0xcc	-52
11	0xa7	-89
12	0x9d	-99
13	0x1d	29
14	0xb0	-80
15	0x87	-121
16	0x26	38
17	0x09	9
18	0x45	69
19	0xf6	-10
20	0x33	51
21	0xa5	-91
22	0x15	21
23	0xde	-34
24	0xda	-38
25	0xc5	-59
26	0xc8	-56
27	0xdc	-36
28	0xe4	-28
29	0x1b	27
30	0x85	-123
31	0xd9	-39
32	0xfa	-6
33	0xdb	-37
34	0xa1	-95
35	0xd2	-46
36	0x46	70
37	0x9e	-98
38	0xf5	-11
39	0xcf	-49
40	0x07	7
41	0x1e	30
42	0xf5	-11
43	0x35	53
44	0x41	65
45	0x03	3
46	0xf0	-16
47	0xe7	-25
48	0xee	-18
49	0xde	-34
50	0x96	-106
51	0xbc	-68
52	0x38	56
53	0x11	17
54	0xf3	-13
55	0x31	49
56	0xf4	-12
57	0xa3	-93
58	0xa8	-88
59	0x47	71
60	0x93	-109
61	0xc8	-56
62	0xea	-22
63	0x8d	-115
64	0xad	-83
65	0xf0	-16
66	0xdd	-35
67	0x11	17
68	0xa9	-87
69	0xe4	-28
70	0x1f	31
71	0xe7	-25
72	0xe8	-24
73	0xbd	-67
74	0x1e	30
75	0xb6	-74
76	0xec	-20
77	0x1a	26
78	0xef	-17
79	0xba	-70
80	0xe7	-25
81	0x43	67
82	0xd7	-41
83	0xe4	-28
84	0xee	-18
85	0xbb	-69
86	0xd3	-45
87	0x27	39
88	0x2b	43
89	0x14	20
90	0xe7	-25
91	0x17	23
92	0x0b	11
93	0xa3	-93
94	0xad	-83
95	0x8d	-115
96	0x1d	29
97	0xc2	-62
98	0xbb	-69
99	0xe9	-23
100	0xee	-18
101	0xfb	-5
102	0x35	53
103	0xb0	-80
104	0x2f	47
105	0xb7	-73
106	0xab	-85
107	0x18	24
108	0x28	40
109	0xfe	-2
110	0xe6	-26
111	0x1a	26
112	0x36	54
113	0x11	17
114	0x55	85
115	0xe0	-32
116	0xcd	-51
117	0xc0	-64
118	0xa7	-89
119	0x36	54
120	0x35	53
121	0xdc	-36
122	0x34	52
123	0xcf	-49
124	0x88	-120
125	0xab	-85
126	0xe2	-30
127	0x06	6
128	0x13	19
129	0xe3	-29
130	0x07	7
131	0xaa	-86
132	0xe3	-29
133	0xd3	-45
134	0xc4	-60
135	0x0c	12
136	0x26	38
137	0x3b	59
138	0x39	57
139	0xdc	-36
140	0xbf	-65
141	0xe6	-26
142	0x1f	31
143	0xf9	-7
144	0x1b	27
145	0xa9	-87
146	0x09	9
147	0xf8	-8
148	0xdf	-33
149	0xe6	-26
150	0xc7	-57
151	0xd8	-40
152	0xbf	-65
153	0xbc	-68
154	0x41	65
155	0x20	32
156	0x13	19
157	0x36	54
158	0xda	-38
159	0xbe	-66
160	0xb3	-77
161	0xf7	-9
162	0xc1	-63
163	0xf9	-7
164	0xce	-50
165	0x2d	45
166	0x1d	29
167	0xdd	-35
168	0xd0	-48
169	0xea	-22
170	0xf2	-14
171	0xb9	-71
172	0x34	52
173	0x9d	-99
174	0xc1	-63
175	0xf0	-16
176	0xef	-17
177	0x42	66
178	0xb9	-71
179	0xae	-82
180	0xb2	-78
181	0xac	-84
182	0xc1	-63
183	0xee	-18
184	0xed	-19
185	0xe0	-32
186	0xe5	-27
187	0xd3	-45
188	0x42	66
189	0xfc	-4
190	0x27	39
191	0x04	4
192	0xc2	-62
193	0x2f	47
194	0xae	-82
195	0x06	6
196	0xce	-50
197	0x1f	31
198	0x91	-111
199	0xe0	-32
200	0xdb	-37
201	0x13	19
202	0xed	-19
203	0xef	-17
204	0xa3	-93
205	0xec	-20
206	0xfb	-5
207	0xd0	-48
208	0xce	-50
209	0xb1	-79
210	0xf3	-13
211	0x2a	42
212	0x1c	28
213	0xfc	-4
214	0xdb	-37
215	0xd4	-44
216	0x1b	27
217	0xed	-19
218	0xed	-19
219	0xd6	-42
220	0x2d	45
221	0x96	-106
222	0x04	4
223	0xa6	-90
224	0xb7	-73
225	0xa7	-89
226	0xd5	-43
227	0xee	-18
228	0xf1	-15
229	0xe7	-25
230	0x16	22
231	0x21	33
232	0x3c	60
233	0xb2	-78
234	0xb4	-76
235	0xb6	-74
236	0xd5	-43
237	0xcf	-49
238	0xd9	-39
239	0x4c	76
240	0xa2	-94
241	0x2b	43
242	0xa1	-95
243	0xdd	-35
244	0xe4	-28
245	0xaf	-81
246	0xb8	-72
247	0x2a	42
248	0x2a	42
249	0x06	6
250	0x8c	-116
251	0xe7	-25
252	0x8d	-115
253	0x2a	42
254	0x0b	11
255	0x93	-109

sequential/conv2d_3/Conv2D i1 [64, 3, 3, 48]
0	0xf6	-10
1	0xee	-18
2	0x10	16
3	0x4f	79
4	0xd8	-40
5	0xda	-38
6	0x1d	29
7	0xdb	-37
8	0xfb	-5
9	0xdf	-33
10	0xf0	-16
11	0x0c	12
12	0xe2	-30
13	0x1d	29
14	0x2d	45
15	0xee	-18
16	0xfd	-3
17	0xf8	-8
18	0xeb	-21
19	0xd6	-42
20	0xf9	-7
21	0xee	-18
22	0x0c	12
23	0x14	20
24	0x7f	127
25	0x3c	60
26	0xde	-34
27	0x30	48
28	0xc6	-58
29	0x3c	60
30	0xf1	-15
31	0x08	8
32	0x03	3
33	0x1d	29
34	0x1b	27
35	0xde	-34
36	0xee	-18
37	0x67	103
38	0xc4	-60
39	0x0f	15
40	0xe8	-24
41	0xe1	-31
42	0x34	52
43	0x24	36
44	0x74	116
45	0x01	1
46	0x05	5
47	0xfd	-3
48	0x34	52
49	0xbc	-68
50	0x14	20
51	0x45	69
52	0x0f	15
53	0x25	37
54	0x19	25
55	0xe0	-32
56	0x0d	13
57	0xfc	-4
58	0xf1	-15
59	0x0e	14
60	0x3d	61
61	0x36	54
62	0x21	33
63	0x22	34
64	0xd4	-44
65	0xf9	-7
66	0xf8	-8
67	0x00	0
68	0x0a	10
69	0xee	-18
70	0x3a	58
71	0x14	20
72	0x16	22
73	0xf3	-13
74	0xde	-34
75	0x16	22
76	0xff	-1
77	0x04	4
78	0x14	20
79	0xe7	-25
80	0xcb	-53
81	0xfb	-5
82	0x23	35
83	0x0a	10
84	0x21	33
85	0x16	22
86	0x08	8
87	0x1f	31
88	0x21	33
89	0x15	21
90	0x1b	27
91	0xdb	-37
92	0x07	7
93	0xdf	-33
94	0xf2	-14
95	0x1f	31
96	0x06	6
97	0x0c	12
98	0xd1	-47
99	0xdd	-35
100	0xd9	-39
101	0xe3	-29
102	0xdd	-35
103	0xe7	-25
104	0xc5	-59
105	0xe1	-31
106	0xd8	-40
107	0xc6	-58
108	0x20	32
109	0x32	50
110	0xbf	-65
111	0xfa	-6
112	0xe5	-27
113	0xc7	-57
114	0x09	9
115	0x21	33
116	0xf2	-14
117	0xfe	-2
118	0xcc	-52
119	0x36	54
120	0xb2	-78
121	0x3a	58
122	0xce	-50
123	0x21	33
124	0xe0	-32
125	0xc2	-62
126	0xc1	-63
127	0x36	54
128	0x10	16
129	0xed	-19
130	0x31	49
131	0xf2	-14
132	0x52	82
133	0xee	-18
134	0x01	1
135	0x26	38
136	0x0b	11
137	0x2b	43
138	0x15	21
139	0x1e	30
140	0xfe	-2
141	0x31	49
142	0xf3	-13
143	0x2a	42
144	0xd3	-45
145	0xce	-50
146	0x28	40
147	0x2f	47
148	0x2e	46
149	0xc6	-58
150	0xcb	-53
151	0x1e	30
152	0xd6	-42
153	0xe1	-31
154	0x31	49
155	0x21	33
156	0x25	37
157	0x18	24
158	0x2a	42
159	0xd4	-44
160	0x1d	29
161	0x18	24
162	0xe8	-24
163	0xed	-19
164	0x24	36
165	0xdd	-35
166	0xc4	-60
167	0xff	-1
168	0x48	72
169	0xd7	-41
170	0x13	19
171	0x0e	14
172	0x06	6
173	0x4b	75
174	0xdf	-33
175	0x1f	31
176	0xd6	-42
177	0x2d	45
178	0x2e	46
179	0x20	32
180	0xec	-20
181	0x1a	26
182	0xef	-17
183	0x0f	15
184	0x17	23
185	0x3d	61
186	0x06	6
187	0xee	-18
188	0x17	23
189	0x10	16
190	0x30	48
191	0x04	4
192	0x0a	10
193	0xd4	-44
194	0xe4	-28
195	0x15	21
196	0x1a	26
197	0x1a	26
198	0xfc	-4
199	0x2b	43
200	0xfb	-5
201	0x33	51
202	0xe3	-29
203	0x25	37
204	0xea	-22
205	0x30	48
206	0x2e	46
207	0xff	-1
208	0xd5	-43
209	0x2b	43
210	0x07	7
211	0x18	24
212	0x3a	58
213	0x2a	42
214	0x14	20
215	0xde	-34
216	0xcd	-51
217	0x11	17
218	0x0f	15
219	0x36	54
220	0xfc	-4
221	0x3e	62
222	0xfb	-5
223	0xdf	-33
224	0xe0	-32
225	0x2e	46
226	0xd3	-45
227	0xd3	-45
228	0xeb	-21
229	0xfe	-2
230	0xfe	-2
231	0x27	39
232	0xfd	-3
233	0x36	54
234	0x16	22
235	0x16	22
236	0x08	8
237	0xda	-38
238	0x0f	15
239	0xdb	-37
240	0xdc	-36
241	0x03	3
242	0x00	0
243	0xbd	-67
244	0x05	5
245	0x29	41
246	0x1c	28
247	0xdf	-33
248	0x24	36
249	0x2c	44
250	0xfa	-6
251	0xe8	-24
252	0x04	4
253	0x2d	45
254	0xf4	-12
255	0xe6	-26

sequential/conv2d_2/Conv2D i1 [48, 5, 5, 36]
0	0xfa	-6
1	0x2e	46
2	0xe2	-30
3	0x29	41
4	0xd9	-39
5	0xaf	-81
6	0xe7	-25
7	0x30	48
8	0xef	-17
9	0x9e	-98
10	0xb8	-72
11	0xd4	-44
12	0x1a	26
13	0x30	48
14	0x2d	45
15	0xf6	-10
16	0xde	-34
17	0x39	57
18	0x38	56
19	0xcf	-49
20	0x96	-106
21	0xb3	-77
22	0x1b	27
23	0xbe	-66
24	0xfe	-2
25	0xae	-82
26	0x3d	61
27	0xcc	-52
28	0xe7	-25
29	0x29	41
30	0xcd	-51
31	0xa2	-94
32	0x95	-107
33	0xd7	-41
34	0x43	67
35	0x3a	58
36	0xbd	-67
37	0x2b	43
38	0x8f	-113
39	0x27	39
40	0xc4	-60
41	0x0c	12
42	0x07	7
43	0x02	2
44	0xd6	-42
45	0x07	7
46	0xbc	-68
47	0xb4	-76
48	0xf1	-15
49	0x38	56
50	0xff	-1
51	0x1c	28
52	0x08	8
53	0xff	-1
54	0xf8	-8
55	0xc5	-59
56	0xf9	-7
57	0xba	-70
58	0x06	6
59	0xa3	-93
60	0xb6	-74
61	0x20	32
62	0x36	54
63	0xb3	-77
64	0x23	35
65	0x29	41
66	0x3d	61
67	0xe0	-32
68	0xc6	-58
69	0xc6	-58
70	0x24	36
71	0xfc	-4
72	0xcc	-52
73	0x32	50
74	0x21	33
75	0x9e	-98
76	0x03	3
77	0x15	21
78	0x17	23
79	0xb9	-71
80	0xac	-84
81	0xe1	-31
82	0x4e	78
83	0x0e	14
84	0xa0	-96
85	0x0c	12
86	0x23	35
87	0xc8	-56
88	0xcb	-53
89	0xd8	-40
90	0x06	6
91	0xf0	-16
92	0x06	6
93	0x3a	58
94	0x33	51
95	0xd1	-47
96	0xb8	-72
97	0x09	9
98	0x4e	78
99	0xd9	-39
100	0xb2	-78
101	0x24	36
102	0x23	35
103	0x2c	44
104	0x15	21
105	0x9a	-102
106	0x29	41
107	0xbe	-66
108	0x30	48
109	0x0f	15
110	0x2e	46
111	0xf1	-15
112	0x2d	45
113	0xd3	-45
114	0x9a	-102
115	0x8e	-114
116	0xda	-38
117	0xf8	-8
118	0xe9	-23
119	0x2c	44
120	0x29	41
121	0xac	-84
122	0xc0	-64
123	0xd5	-43
124	0xdd	-35
125	0xe3	-29
126	0xdc	-36
127	0x98	-104
128	0x3b	59
129	0xf0	-16
130	0x0e	14
131	0x04	4
132	0xf2	-14
133	0x92	-110
134	0x38	56
135	0x31	49
136	0xb8	-72
137	0xb2	-78
138	0xf8	-8
139	0x37	55
140	0xf3	-13
141	0xa2	-94
142	0x0e	14
143	0x39	57
144	0xa3	-93
145	0xe5	-27
146	0x02	2
147	0x20	32
148	0x1f	31
149	0xdb	-37
150	0x42	66
151	0xe9	-23
152	0xb7	-73
153	0xa3	-93
154	0xc4	-60
155	0x4d	77
156	0xa6	-90
157	0x2f	47
158	0x4b	75
159	0x9a	-102
160	0x13	19
161	0xa4	-92
162	0x1c	28
163	0x8f	-113
164	0xc9	-55
165	0x9c	-100
166	0xe8	-24
167	0x4a	74
168	0xb6	-74
169	0x36	54
170	0xde	-34
171	0x8a	-118
172	0x15	21
173	0xaa	-86
174	0xaa	-86
175	0xfd	-3
176	0xfc	-4
177	0xca	-54
178	0xaa	-86
179	0xb0	-80
180	0x16	22
181	0xe6	-26
182	0x0e	14
183	0x00	0
184	0x24	36
185	0xd8	-40
186	0xf8	-8
187	0xa8	-88
188	0x45	69
189	0xc8	-56
190	0x22	34
191	0xbe	-66
192	0xd3	-45
193	0xe9	-23
194	0xae	-82
195	0xfc	-4
196	0x12	18
197	0xa0	-96
198	0x2a	42
199	0xe0	-32
200	0x9e	-98
201	0xe0	-32
202	0x06	6
203	0x42	66
204	0xe3	-29
205	0xdf	-33
206	0x11	17
207	0xbd	-67
208	0xfc	-4
209	0x96	-106
210	0x9e	-98
211	0xe7	-25
212	0x05	5
213	0xe1	-31
214	0xe4	-28
215	0x04	4
216	0x22	34
217	0x33	51
218	0xd8	-40
219	0xb1	-79
220	0x18	24
221	0xe9	-23
222	0xf3	-13
223	0xdd	-35
224	0x20	32
225	0x9b	-101
226	0x27	39
227	0xc6	-58
228	0xfc	-4
229	0x32	50
230	0xcc	-52
231	0x1d	29
232	0xf5	-11
233	0x19	25
234	0xf2	-14
235	0xcf	-49
236	0xec	-20
237	0x06	6
238	0xe1	-31
239	0x40	64
240	0x03	3
241	0xf7	-9
242	0xae	-82
243	0xf7	-9
244	0x49	73
245	0xcb	-53
246	0xdf	-33
247	0x29	41
248	0xaf	-81
249	0x2e	46
250	0x4c	76
251	0x22	34
252	0xc9	-55
253	0xf3	-13
254	0xff	-1
255	0x26	38

sequential/conv2d_1/Conv2D i1 [36, 5, 5, 24]
0	0x36	54
1	0x0a	10
2	0x34	52
3	0x22	34
4	0xe0	-32
5	0x02	2
6	0xe0	-32
7	0xe0	-32
8	0x18	24
9	0x1b	27
10	0x2b	43
11	0x3a	58
12	0x1e	30
13	0xf7	-9
14	0xf3	-13
15	0xf1	-15
16	0xdf	-33
17	0x0c	12
18	0x04	4
19	0xed	-19
20	0xfd	-3
21	0xd4	-44
22	0x0a	10
23	0x0f	15
24	0xd4	-44
25	0x27	39
26	0xd6	-42
27	0xe9	-23
28	0x2e	46
29	0x3d	61
30	0xe9	-23
31	0xdd	-35
32	0xeb	-21
33	0xd8	-40
34	0x27	39
35	0x31	49
36	0xf0	-16
37	0xf9	-7
38	0x04	4
39	0xf5	-11
40	0xe7	-25
41	0xc4	-60
42	0xfc	-4
43	0xf4	-12
44	0x26	38
45	0x05	5
46	0xee	-18
47	0xfa	-6
48	0x11	17
49	0x0d	13
50	0xd7	-41
51	0xcb	-53
52	0x31	49
53	0xef	-17
54	0xe6	-26
55	0x34	52
56	0xe4	-28
57	0x07	7
58	0x03	3
59	0xe8	-24
60	0xd0	-48
61	0xdf	-33
62	0xfe	-2
63	0x0e	14
64	0x33	51
65	0xdd	-35
66	0x1a	26
67	0xd9	-39
68	0xcd	-51
69	0x33	51
70	0x18	24
71	0xd8	-40
72	0x14	20
73	0xe6	-26
74	0x1e	30
75	0x04	4
76	0x00	0
77	0xf8	-8
78	0x0f	15
79	0xd4	-44
80	0xed	-19
81	0x11	17
82	0xf6	-10
83	0x35	53
84	0x16	22
85	0x23	35
86	0x07	7
87	0x28	40
88	0xf7	-9
89	0x30	48
90	0x0e	14
91	0x26	38
92	0xdb	-37
93	0x32	50
94	0xd2	-46
95	0xa2	-94
96	0xfc	-4
97	0xf4	-12
98	0xd9	-39
99	0x32	50
100	0xfc	-4
101	0xf6	-10
102	0xca	-54
103	0x0d	13
104	0x27	39
105	0x13	19
106	0xc6	-58
107	0xcf	-49
108	0x25	37
109	0xd1	-47
110	0x2b	43
111	0xf7	-9
112	0xef	-17
113	0x34	52
114	0xfb	-5
115	0x1e	30
116	0x00	0
117	0xfe	-2
118	0x2e	46
119	0x85	-123
120	0xf5	-11
121	0x2e	46
122	0x04	4
123	0x11	17
124	0xd4	-44
125	0x0a	10
126	0xdd	-35
127	0x14	20
128	0x23	35
129	0xf4	-12
130	0xdc	-36
131	0xe7	-25
132	0x31	49
133	0xee	-18
134	0x18	24
135	0x1e	30
136	0x27	39
137	0x31	49
138	0x27	39
139	0xcd	-51
140	0x34	52
141	0x21	33
142	0xcb	-53
143	0xbb	-69
144	0x1b	27
145	0x0c	12
146	0x1e	30
147	0x14	20
148	0x32	50
149	0x34	52
150	0xc7	-57
151	0xeb	-21
152	0x17	23
153	0xe7	-25
154	0xe7	-25
155	0xf2	-14
156	0xff	-1
157	0xee	-18
158	0x15	21
159	0xf5	-11
160	0xf2	-14
161	0xe4	-28
162	0x47	71
163	0xdc	-36
164	0x14	20
165	0x08	8
166	0xd6	-42
167	0x02	2
168	0x10	16
169	0x28	40
170	0xd6	-42
171	0x2e	46
172	0xd8	-40
173	0xd0	-48
174	0x19	25
175	0x07	7
176	0xe5	-27
177	0xd6	-42
178	0xdf	-33
179	0xf7	-9
180	0xd2	-46
181	0xfb	-5
182	0xee	-18
183	0xf8	-8
184	0xef	-17
185	0x07	7
186	0x43	67
187	0x10	16
188	0x12	18
189	0xc4	-60
190	0x11	17
191	0x9c	-100
192	0x0d	13
193	0xf0	-16
194	0x09	9
195	0xf9	-7
196	0xdd	-35
197	0xfa	-6
198	0x34	52
199	0x01	1
200	0xd9	-39
201	0xf7	-9
202	0x24	36
203	0xca	-54
204	0xf7	-9
205	0x24	36
206	0x2d	45
207	0x38	56
208	0xc7	-57
209	0xc4	-60
210	0xe7	-25
211	0xd1	-47
212	0xc9	-55
213	0x21	33
214	0x12	18
215	0xbb	-69
216	0x16	22
217	0x0d	13
218	0x31	49
219	0xda	-38
220	0xda	-38
221	0x16	22
222	0x1a	26
223	0xe1	-31
224	0x1f	31
225	0x2d	45
226	0x16	22
227	0x33	51
228	0x04	4
229	0xe5	-27
230	0x33	51
231	0xd2	-46
232	0xf9	-7
233	0xe9	-23
234	0xf9	-7
235	0xc3	-61
236	0x20	32
237	0xd5	-43
238	0x28	40
239	0x81	-127
240	0xff	-1
241	0xf2	-14
242	0xca	-54
243	0x10	16
244	0xe7	-25
245	0x20	32
246	0x30	48
247	0xd9	-39
248	0x2e	46
249	0xff	-1
250	0xf9	-7
251	0xe7	-25
252	0xce	-50
253	0xff	-1
254	0xd1	-47
255	0x2f	47

sequential/conv2d/Conv2D i1 [24, 5, 5, 3]
0	0xb8	-72
1	0x83	-125
2	0xf1	-15
3	0x83	-125
4	0x5c	92
5	0x81	-127
6	0x0b	11
7	0xdd	-35
8	0x88	-120
9	0xb0	-80
10	0xbf	-65
11	0x24	36
12	0xf7	-9
13	0xda	-38
14	0x5a	90
15	0x2f	47
16	0x37	55
17	0x27	39
18	0xe0	-32
19	0xa2	-94
20	0xe3	-29
21	0xaf	-81
22	0xf7	-9
23	0xc5	-59
24	0xcd	-51
25	0xb3	-77
26	0xe5	-27
27	0x32	50
28	0x60	96
29	0x39	57
30	0x59	89
31	0x0c	12
32	0xd2	-46
33	0x63	99
34	0x51	81
35	0x98	-104
36	0xcd	-51
37	0x87	-121
38	0xfa	-6
39	0x8f	-113
40	0x66	102
41	0x07	7
42	0x82	-126
43	0xe0	-32
44	0x4b	75
45	0x15	21
46	0x9c	-100
47	0xd2	-46
48	0xb2	-78
49	0x90	-112
50	0x8b	-117
51	0x42	66
52	0xee	-18
53	0x2b	43
54	0x4f	79
55	0x39	57
56	0x18	24
57	0xb4	-76
58	0xd0	-48
59	0x6b	107
60	0x5b	91
61	0x3d	61
62	0x6f	111
63	0xda	-38
64	0x13	19
65	0xb6	-74
66	0xd7	-41
67	0xf9	-7
68	0x40	64
69	0x86	-122
70	0xb9	-71
71	0x70	112
72	0x75	117
73	0x21	33
74	0x06	6
75	0xbc	-68
76	0x4d	77
77	0x9e	-98
78	0x49	73
79	0xde	-34
80	0xc9	-55
81	0x59	89
82	0xeb	-21
83	0x48	72
84	0x44	68
85	0xef	-17
86	0x2f	47
87	0x11	17
88	0x59	89
89	0x33	51
90	0xc0	-64
91	0xc3	-61
92	0x23	35
93	0xaa	-86
94	0x81	-127
95	0x4b	75
96	0xb2	-78
97	0xeb	-21
98	0x26	38
99	0xb6	-74
100	0xe7	-25
101	0x52	82
102	0xcf	-49
103	0xba	-70
104	0x94	-108
105	0xcd	-51
106	0x23	35
107	0xab	-85
108	0x21	33
109	0xa5	-91
110	0xf1	-15
111	0x94	-108
112	0x97	-105
113	0x0f	15
114	0x0d	13
115	0x09	9
116	0x91	-111
117	0xee	-18
118	0x89	-119
119	0xfd	-3
120	0x9d	-99
121	0x52	82
122	0x32	50
123	0xbf	-65
124	0x06	6
125	0x1a	26
126	0x97	-105
127	0x21	33
128	0x39	57
129	0xa3	-93
130	0xd2	-46
131	0xed	-19
132	0x04	4
133	0xa5	-91
134	0x46	70
135	0x35	53
136	0x58	88
137	0x87	-121
138	0x42	66
139	0x12	18
140	0x09	9
141	0x55	85
142	0x81	-127
143	0xc2	-62
144	0x1a	26
145	0x22	34
146	0x27	39
147	0x4c	76
148	0x17	23
149	0x87	-121
150	0xab	-85
151	0x40	64
152	0x01	1
153	0xbc	-68
154	0x40	64
155	0x0c	12
156	0x8b	-117
157	0xd6	-42
158	0x16	22
159	0x24	36
160	0xeb	-21
161	0xe0	-32
162	0x21	33
163	0x02	2
164	0xa7	-89
165	0x81	-127
166	0x26	38
167	0x1d	29
168	0xd8	-40
169	0x1c	28
170	0x14	20
171	0xce	-50
172	0xf9	-7
173	0x3c	60
174	0x20	32
175	0xb0	-80
176	0x2f	47
177	0x29	41
178	0x38	56
179	0xbc	-68
180	0x2e	46
181	0xf2	-14
182	0xd8	-40
183	0xa5	-91
184	0x08	8
185	0xb0	-80
186	0xff	-1
187	0x41	65
188	0xf3	-13
189	0xe2	-30
190	0x2e	46
191	0xd7	-41
192	0xba	-70
193	0x03	3
194	0x48	72
195	0xeb	-21
196	0xc2	-62
197	0xe9	-23
198	0xe4	-28
199	0xdb	-37
200	0xad	-83
201	0xa8	-88
202	0xec	-20
203	0x1c	28
204	0xa1	-95
205	0xc2	-62
206	0x04	4
207	0xb0	-80
208	0xcc	-52
209	0xe4	-28
210	0x90	-112
211	0x12	18
212	0x9b	-101
213	0x82	-126
214	0x1c	28
215	0x27	39
216	0x8b	-117
217	0x2a	42
218	0x00	0
219	0x17	23
220	0xe5	-27
221	0xba	-70
222	0x9c	-100
223	0x2e	46
224	0x21	33
225	0xb7	-73
226	0x20	32
227	0x81	-127
228	0x58	88
229	0x40	64
230	0xa9	-87
231	0x08	8
232	0xdc	-36
233	0xb5	-75
234	0xc8	-56
235	0xa6	-90
236	0x0d	13
237	0xb4	-76
238	0xc8	-56
239	0xe8	-24
240	0x22	34
241	0x7f	127
242	0x7a	122
243	0x24	36
244	0x95	-107
245	0x57	87
246	0xc6	-58
247	0x06	6
248	0xdf	-33
249	0x08	8
250	0xec	-20
251	0xe6	-26
252	0x52	82
253	0x65	101
254	0x00	0
255	0xb5	-75

dense_2/bias f4 [10]
0	0xbcd60048	-0.026123181
1	0x3e20de65	0.15709837
2	0x3cf0fb5a	0.029416729
3	0xbd8adee1	-0.06780792
4	0xbd8dbb62	-0.06920506
5	0xbc990479	-0.01867889
6	0x3dfa7565	0.122294225
7	0x3e06374c	0.13107032
8	0x3e15de06	0.14635476
9	0xbc3d0031	-0.01153569

dense_1/bias f4 [50]
0	0x3db04418	0.08606738
1	0x3d915f2a	0.07098229
2	0x3db485f2	0.088146105
3	0xbe592bd5	-0.21208127
4	0x3d6cf07c	0.05784653
5	0x3d02b83c	0.03191398
6	0x3e3e2119	0.18567313
7	0x3dcf9bca	0.10137136
8	0x3db31d41	0.08745814
9	0x3cb82b2e	0.022481527
10	0xbb1b24ea	-0.0023673126
11	0x3dd25355	0.102698006
12	0x3d89cd5a	0.06728621
13	0xbe08221a	-0.13294259
14	0x3d08020b	0.033205073
15	0xbcfea8c6	-0.031086337
16	0x3df8aaa2	0.121419206
17	0xbca27e8c	-0.019835733
18	0xbd8a522e	-0.06753956
19	0x3d49cd58	0.049268097
20	0x3dd74008	0.1051026
21	0x3e9086c9	0.28227833
22	0xbda5ae6a	-0.080899075
23	0x3d9c4ef1	0.076322444
24	0xbd08246b	-0.033237856
25	0xbe8c83bf	-0.27444264
26	0xbd8f032d	-0.069830276
27	0xb8525bf5	-5.0153543e-05
28	0xbe35bd0d	-0.17747898
29	0xbccb4067	-0.024810983
30	0xbe316dd4	-0.17327052
31	0x3e19443f	0.1496744
32	0x3e9b8956	0.30378217
33	0xbd01facd	-0.031733323
34	0x3e564900	0.20926285
35	0xbd8c8e06	-0.06863026
36	0xbd388739	-0.045050833
37	0x3da474bc	0.08030078
38	0x3d9f1489	0.07767589
39	0x3d15c346	0.03656318
40	0x3d4aadfb	0.049482327
41	0x3de8ffdc	0.11376926
42	0xbd5dde7c	-0.054167256
43	0x3d664aa6	0.056223534
44	0x3d7eb490	0.062183917
45	0xbcfe608d	-0.031051898
46	0x3d9fce5f	0.07803034
47	0x3eb38616	0.35063237
48	0xbd33ec0d	-0.043926287
49	0x3b851eca	0.0040625082

dense/bias f4 [100]
0	0x3dfda95e	0.1238582
1	0xbc59e4ec	-0.013299208
2	0xbca33363	-0.019921964
3	0x3ded4e05	0.11587147
4	0x3d80bfe0	0.06286597
5	0xbc3a00a4	-0.011352692
6	0x3d805c30	0.06267583
7	0xbd0c899d	-0.034310926
8	0x3dc4f796	0.09617536
9	0x3dea8fa0	0.114531755
10	0xbc245e19	-0.0100322
11	0xbc4b268c	-0.012399327
12	0x3cddbc5b	0.027067354
13	0xbc91f9e7	-0.017819358
14	0xbc00b245	-0.007855003
15	0x3e64cae3	0.2234302
16	0xbd4d733b	-0.05015872
17	0xbd3f0e09	-0.046644244
18	0xbd39b98e	-0.045342974
19	0x3d8bd95b	0.06828567
20	0x3de526ef	0.111890666
21	0x3d413927	0.047173645
22	0xbb90e03b	-0.0044212616
23	0xbc41f720	-0.011838704
24	0xbd289af0	-0.041163385
25	0xbc99760a	-0.018733043
26	0xbc01d094	-0.007923264
27	0x3e136c67	0.14396821
28	0x3d2355e2	0.039876826
29	0xbd3c441c	-0.04596339
30	0xbc993863	-0.018703645
31	0xbcdcd2d7	-0.026956005
32	0x3ca5eee0	0.020255506
33	0x3d9c3726	0.07627706
34	0xbcd22e6b	-0.0256569
35	0xbc5968e5	-0.013269638
36	0xbce01fb4	-0.027358867
37	0xbbdcdd5f	-0.0067402567
38	0xbbf17a02	-0.007369281
39	0x3d4e8a7b	0.050425034
40	0xbc314628	-0.010819949
41	0x3c896c43	0.016775256
42	0x3d487477	0.048939195
43	0x3d696d89	0.056989226
44	0x3bc7078d	0.006073898
45	0x3d499252	0.049211808
46	0x3be54602	0.006996871
47	0x3c91871b	0.017764619
48	0x3cd7f0fc	0.026360027
49	0x3d3396fe	0.04384517
50	0xbc6dc851	-0.014513091
51	0x3e0ab339	0.1354493
52	0xbc06cb85	-0.008227234
53	0xbbc4a52a	-0.0060011344
54	0xbc925003	-0.017860418
55	0x3e28b6b5	0.16475947
56	0xbc8f1185	-0.017464409
57	0xbc19107d	-0.00934231
58	0x3dad61c2	0.084659114
59	0xbc808161	-0.015686693
60	0xbc3617a3	-0.011114034
61	0xbd04fea8	-0.03246942
62	0xbd20c5c8	-0.03925112
63	0xbbe3d528	-0.0069529004
64	0xbc631dcb	-0.013862084
65	0xbc08524c	-0.008320402
66	0x3ce5ad2d	0.028036678
67	0xbc9ac3e3	-0.018892234
68	0x3e5595ba	0.20857897
69	0xbbe620c0	-0.007022947
70	0xbc8cb830	-0.017177671
71	0xbccfbd36	-0.025358777
72	0x3da370e7	0.07980519
73	0x3d74caa4	0.059763566
74	0x3d4fe1e9	0.050752554
75	0x3de71b16	0.11284463
76	0xbba68f3f	-0.0050829942
77	0xbc86f474	-0.016473986
78	0x3d931327	0.071813874
79	0x3e534664	0.2063232
80	0x3df3870b	0.11890992
81	0xbbe3527b	-0.0069373227
82	0xbd8b071a	-0.06788464
83	0xbc3df4a9	-0.011593976
84	0xbcf83b6e	-0.030301776
85	0x3dbc1e21	0.09185434
86	0xbcdb89fe	-0.026799198
87	0xbcabd330	-0.020974725
88	0x3d18c0f6	0.037293397
89	0x3dd5888d	0.104264356
90	0xbc10e05e	-0.008842556
91	0xbcfc5d9f	-0.03080636
92	0xbd2eaa8d	-0.04264312
93	0x3d88f441	0.06687213
94	0xbc253fa1	-0.010085971
95	0xbd417f3e	-0.04724049
96	0xba522dc5	-0.00080176844
97	0x3d82f21a	0.063938335
98	0x3e61280a	0.2198793
99	0x3c72ee5a	0.014827335

sequential/dense/MatMul i1 [100, 1152] scale=0.008184837 zero_point=0
0	0x07	0.057293862
1	0x09	0.07366353
2	0x03	0.024554512
3	0x28	0.32739347
4	0x17	0.18825126
5	0xfd	-0.024554512
6	0x07	0.057293862
7	0x01	0.008184837
8	0x0a	0.08184837
9	0xff	-0.008184837
10	0x11	0.13914223
11	0x00	0.0
12	0x15	0.17188159
13	0xfa	-0.049109023
14	0x00	0.0
15	0x05	0.040924184
16	0x07	0.057293862
17	0x08	0.0654787
18	0x07	0.057293862
19	0xfe	-0.016369674
20	0x0c	0.098218046
21	0x03	0.024554512
22	0xfb	-0.040924184
23	0xfe	-0.016369674
24	0xf8	-0.0654787
25	0xfa	-0.049109023
26	0xfc	-0.03273935
27	0x02	0.016369674
28	0xfd	-0.024554512
29	0x09	0.07366353
30	0xfd	-0.024554512
31	0x0f	0.12277256
32	0x07	0.057293862
33	0x08	0.0654787
34	0x03	0.024554512
35	0x05	0.040924184
36	0x01	0.008184837
37	0x0b	0.09003321
38	0x02	0.016369674
39	0x01	0.008184837
40	0xf9	-0.057293862
41	0xfc	-0.03273935
42	0x00	0.0
43	0x02	0.016369674
44	0xfd	-0.024554512
45	0xfa	-0.049109023
46	0x0c	0.098218046
47	0x00	0.0
48	0xfa	-0.049109023
49	0x0b	0.09003321
50	0xd9	-0.31920865
51	0xff	-0.008184837
52	0x02	0.016369674
53	0xff	-0.008184837
54	0xd9	-0.31920865
55	0xfc	-0.03273935
56	0xef	-0.13914223
57	0xff	-0.008184837
58	0xf9	-0.057293862
59	0x04	0.03273935
60	0x02	0.016369674
61	0x04	0.03273935
62	0x02	0.016369674
63	0xfa	-0.049109023
64	0x03	0.024554512
65	0x08	0.0654787
66	0xfd	-0.024554512
67	0x11	0.13914223
68	0x14	0.16369674
69	0xfa	-0.049109023
70	0xfd	-0.024554512
71	0xfb	-0.040924184
72	0x09	0.07366353
73	0xfa	-0.049109023
74	0xfb	-0.040924184
75	0x04	0.03273935
76	0x0a	0.08184837
77	0x01	0.008184837
78	0xfd	-0.024554512
79	0xfb	-0.040924184
80	0x00	0.0
81	0xf8	-0.0654787
82	0x08	0.0654787
83	0xfb	-0.040924184
84	0x0a	0.08184837
85	0xfc	-0.03273935
86	0xed	-0.1555119
87	0x01	0.008184837
88	0xf9	-0.057293862
89	0x04	0.03273935
90	0x02	0.016369674
91	0x0d	0.10640288
92	0xff	-0.008184837
93	0x05	0.040924184
94	0xfd	-0.024554512
95	0x1c	0.22917545
96	0xfb	-0.040924184
97	0x0f	0.12277256
98	0x0e	0.114587724
99	0x09	0.07366353
100	0x01	0.008184837
101	0x03	0.024554512
102	0xfc	-0.03273935
103	0x07	0.057293862
104	0xfe	-0.016369674
105	0x03	0.024554512
106	0xfd	-0.024554512
107	0x01	0.008184837
108	0x07	0.057293862
109	0x04	0.03273935
110	0x02	0.016369674
111	0x02	0.016369674
112	0xf9	-0.057293862
113	0x09	0.07366353
114	0xfc	-0.03273935
115	0x02	0.016369674
116	0xfd	-0.024554512
117	0x01	0.008184837
118	0xdc	-0.29465413
119	0xfd	-0.024554512
120	0xf4	-0.098218046
121	0x02	0.016369674
122	0x09	0.07366353
123	0xfe	-0.016369674
124	0x01	0.008184837
125	0xff	-0.008184837
126	0x04	0.03273935
127	0xf5	-0.09003321
128	0xff	-0.008184837
129	0x06	0.049109023
130	0x00	0.0
131	0x16	0.18006642
132	0xfe	-0.016369674
133	0xf7	-0.07366353
134	0xfe	-0.016369674
135	0xee	-0.14732707
136	0x09	0.07366353
137	0xfc	-0.03273935
138	0x04	0.03273935
139	0x02	0.016369674
140	0xfd	-0.024554512
141	0x04	0.03273935
142	0x04	0.03273935
143	0x00	0.0
144	0xfd	-0.024554512
145	0x05	0.040924184
146	0x04	0.03273935
147	0xf9	-0.057293862
148	0xff	-0.008184837
149	0xf1	-0.12277256
150	0xfa	-0.049109023
151	0x01	0.008184837
152	0xff	-0.008184837
153	0x07	0.057293862
154	0xfa	-0.049109023
155	0x03	0.024554512
156	0x02	0.016369674
157	0xf5	-0.09003321
158	0xfb	-0.040924184
159	0x06	0.049109023
160	0x04	0.03273935
161	0x05	0.040924184
162	0x11	0.13914223
163	0x08	0.0654787
164	0x00	0.0
165	0xfd	-0.024554512
166	0xf9	-0.057293862
167	0x03	0.024554512
168	0x04	0.03273935
169	0xee	-0.14732707
170	0xfb	-0.040924184
171	0x0b	0.09003321
172	0x05	0.040924184
173	0xfa	-0.049109023
174	0x05	0.040924184
175	0xfd	-0.024554512
176	0xf8	-0.0654787
177	0x0a	0.08184837
178	0xf7	-0.07366353
179	0x03	0.024554512
180	0x00	0.0
181	0xf8	-0.0654787
182	0xda	-0.3110238
183	0xf7	-0.07366353
184	0xf3	-0.10640288
185	0x02	0.016369674
186	0xfb	-0.040924184
187	0x00	0.0
188	0xfe	-0.016369674
189	0x0a	0.08184837
190	0x09	0.07366353
191	0xfa	-0.049109023
192	0xff	-0.008184837
193	0xfc	-0.03273935
194	0x06	0.049109023
195	0x05	0.040924184
196	0xfa	-0.049109023
197	0xfe	-0.016369674
198	0xfb	-0.040924184
199	0xef	-0.13914223
200	0xfd	-0.024554512
201	0xfe	-0.016369674
202	0xf3	-0.10640288
203	0xff	-0.008184837
204	0xff	-0.008184837
205	0x03	0.024554512
206	0x03	0.024554512
207	0xfb	-0.040924184
208	0xff	-0.008184837
209	0x02	0.016369674
210	0xfe	-0.016369674
211	0xf4	-0.098218046
212	0x02	0.016369674
213	0xff	-0.008184837
214	0xec	-0.16369674
215	0x03	0.024554512
216	0xff	-0.008184837
217	0xfb	-0.040924184
218	0x09	0.07366353
219	0x01	0.008184837
220	0x09	0.07366353
221	0x01	0.008184837
222	0xfb	-0.040924184
223	0x01	0.008184837
224	0x05	0.040924184
225	0xfc	-0.03273935
226	0x10	0.1309574
227	0xfa	-0.049109023
228	0xfe	-0.016369674
229	0x0a	0.08184837
230	0xfb	-0.040924184
231	0x05	0.040924184
232	0x02	0.016369674
233	0x03	0.024554512
234	0xfd	-0.024554512
235	0xfd	-0.024554512
236	0xfa	-0.049109023
237	0x04	0.03273935
238	0x00	0.0
239	0x00	0.0
240	0x05	0.040924184
241	0x07	0.057293862
242	0xfc	-0.03273935
243	0xf7	-0.07366353
244	0x07	0.057293862
245	0xff	-0.008184837
246	0xfa	-0.049109023
247	0xf6	-0.08184837
248	0x06	0.049109023
249	0xfc	-0.03273935
250	0xfc	-0.03273935
251	0xfd	-0.024554512
252	0x07	0.057293862
253	0x01	0.008184837
254	0xfd	-0.024554512
255	0xf5	-0.09003321

sequential/dense_1/MatMul i1 [50, 100] scale=0.0052346145 zero_point=0
0	0x08	0.041876916
1	0x25	0.19368073
2	0xeb	-0.1099269
3	0xfc	-0.020938458
4	0x02	0.010469229
5	0x01	0.0052346145
6	0x1e	0.15703844
7	0xdb	-0.19368073
8	0x0c	0.062815376
9	0xe0	-0.16750766
10	0x12	0.09422306
11	0x20	0.16750766
12	0x1f	0.16227305
13	0xfb	-0.026173072
14	0xe9	-0.12039613
15	0xf9	-0.0366423
16	0xfc	-0.020938458
17	0x18	0.12563075
18	0xee	-0.09422306
19	0xce	-0.26173073
20	0xa3	-0.48681915
21	0x04	0.020938458
22	0x22	0.17797689
23	0x12	0.09422306
24	0x25	0.19368073
25	0x11	0.088988446
26	0xc9	-0.2879038
27	0xe8	-0.12563075
28	0xfe	-0.010469229
29	0xf2	-0.0732846
30	0x14	0.10469229
31	0xef	-0.088988446
32	0x34	0.27219996
33	0x13	0.099457674
34	0xf3	-0.06804999
35	0x08	0.041876916
36	0xdb	-0.19368073
37	0x1a	0.13609998
38	0xff	-0.0052346145
39	0x19	0.13086537
40	0xde	-0.17797689
41	0x0e	0.0732846
42	0x05	0.026173072
43	0x1a	0.13609998
44	0xe8	-0.12563075
45	0xdf	-0.17274228
46	0x03	0.015703844
47	0xfb	-0.026173072
48	0xb5	-0.3925961
49	0xe7	-0.13086537
50	0x05	0.026173072
51	0x1d	0.15180382
52	0x10	0.08375383
53	0x18	0.12563075
54	0xf0	-0.08375383
55	0xe8	-0.12563075
56	0xf0	-0.08375383
57	0x14	0.10469229
58	0x06	0.031407688
59	0x18	0.12563075
60	0x01	0.0052346145
61	0x1e	0.15703844
62	0xfa	-0.031407688
63	0x18	0.12563075
64	0xef	-0.088988446
65	0x1a	0.13609998
66	0xb8	-0.37689224
67	0xe2	-0.15703844
68	0xf5	-0.057580758
69	0x13	0.099457674
70	0xf3	-0.06804999
71	0xf6	-0.052346144
72	0x2b	0.22508842
73	0xc9	-0.2879038
74	0x3d	0.31931147
75	0x0d	0.06804999
76	0xe4	-0.1465692
77	0xe3	-0.15180382
78	0xec	-0.10469229
79	0xdf	-0.17274228
80	0x2d	0.23555765
81	0x26	0.19891535
82	0x07	0.0366423
83	0xe1	-0.16227305
84	0xf8	-0.041876916
85	0xf8	-0.041876916
86	0xf9	-0.0366423
87	0xff	-0.0052346145
88	0x1d	0.15180382
89	0xf5	-0.057580758
90	0x12	0.09422306
91	0xfb	-0.026173072
92	0xed	-0.099457674
93	0xd6	-0.2198538
94	0xf1	-0.07851922
95	0xfa	-0.031407688
96	0xf4	-0.062815376
97	0xe7	-0.13086537
98	0xfb	-0.026173072
99	0x02	0.010469229
100	0xf0	-0.08375383
101	0x0a	0.052346144
102	0xed	-0.099457674
103	0xf7	-0.04711153
104	0x01	0.0052346145
105	0x08	0.041876916
106	0x08	0.041876916
107	0xe8	-0.12563075
108	0xf5	-0.057580758
109	0xfb	-0.026173072
110	0xfa	-0.031407688
111	0xff	-0.0052346145
112	0x0a	0.052346144
113	0xf0	-0.08375383
114	0x26	0.19891535
115	0x0d	0.06804999
116	0x13	0.099457674
117	0x00	0.0
118	0x11	0.088988446
119	0x10	0.08375383
120	0xef	-0.088988446
121	0x22	0.17797689
122	0x07	0.0366423
123	0x1b	0.1413346
124	0x0f	0.07851922
125	0x22	0.17797689
126	0xdf	-0.17274228
127	0xfb	-0.026173072
128	0x11	0.088988446
129	0xf9	-0.0366423
130	0xeb	-0.1099269
131	0x16	0.115161516
132	0x16	0.115161516
133	0xe9	-0.12039613
134	0x03	0.015703844
135	0xe2	-0.15703844
136	0x15	0.1099269
137	0x25	0.19368073
138	0x1e	0.15703844
139	0xdd	-0.1832115
140	0x23	0.1832115
141	0xf9	-0.0366423
142	0x1c	0.1465692
143	0x00	0.0
144	0x06	0.031407688
145	0xed	-0.099457674
146	0xdb	-0.19368073
147	0x10	0.08375383
148	0xf1	-0.07851922
149	0xf4	-0.062815376
150	0xfd	-0.015703844
151	0xf6	-0.052346144
152	0x05	0.026173072
153	0xef	-0.088988446
154	0xf1	-0.07851922
155	0x11	0.088988446
156	0xe8	-0.12563075
157	0x09	0.04711153
158	0xdb	-0.19368073
159	0xe8	-0.12563075
160	0x0b	0.057580758
161	0xdf	-0.17274228
162	0x1b	0.1413346
163	0xe5	-0.1413346
164	0xe4	-0.1465692
165	0xd8	-0.20938458
166	0xd8	-0.20938458
167	0xdd	-0.1832115
168	0x19	0.13086537
169	0xe6	-0.13609998
170	0xdd	-0.1832115
171	0xe3	-0.15180382
172	0x2b	0.22508842
173	0x0e	0.0732846
174	0x10	0.08375383
175	0xf6	-0.052346144
176	0x0c	0.062815376
177	0x19	0.13086537
178	0xe4	-0.1465692
179	0x0f	0.07851922
180	0x24	0.18844612
181	0xf8	-0.041876916
182	0x19	0.13086537
183	0xe9	-0.12039613
184	0xf6	-0.052346144
185	0xe7	-0.13086537
186	0x01	0.0052346145
187	0xe5	-0.1413346
188	0x0d	0.06804999
189	0x05	0.026173072
190	0x01	0.0052346145
191	0xe3	-0.15180382
192	0xee	-0.09422306
193	0xfb	-0.026173072
194	0x13	0.099457674
195	0xe4	-0.1465692
196	0xe9	-0.12039613
197	0xdd	-0.1832115
198	0x1f	0.16227305
199	0xc9	-0.2879038
200	0xd9	-0.20414996
201	0x23	0.1832115
202	0xfc	-0.020938458
203	0xf0	-0.08375383
204	0xe4	-0.1465692
205	0xde	-0.17797689
206	0x0c	0.062815376
207	0xe8	-0.12563075
208	0x19	0.13086537
209	0x13	0.099457674
210	0x12	0.09422306
211	0x17	0.12039613
212	0x13	0.099457674
213	0xfc	-0.020938458
214	0x1d	0.15180382
215	0x19	0.13086537
216	0x09	0.04711153
217	0x08	0.041876916
218	0xf5	-0.057580758
219	0xae	-0.42923838
220	0xc7	-0.298373
221	0x06	0.031407688
222	0xda	-0.19891535
223	0xf0	-0.08375383
224	0xe1	-0.16227305
225	0xe1	-0.16227305
226	0x05	0.026173072
227	0x28	0.20938458
228	0xf7	-0.04711153
229	0x06	0.031407688
230	0x10	0.08375383
231	0x06	0.031407688
232	0xe7	-0.13086537
233	0xfd	-0.015703844
234	0xed	-0.099457674
235	0xe9	-0.12039613
236	0x04	0.020938458
237	0x26	0.19891535
238	0xe6	-0.13609998
239	0x0b	0.057580758
240	0x14	0.10469229
241	0xd3	-0.23555765
242	0xee	-0.09422306
243	0x2b	0.22508842
244	0xee	-0.09422306
245	0xca	-0.2826692
246	0x1d	0.15180382
247	0x43	0.35071918
248	0xc4	-0.31407687
249	0x03	0.015703844
250	0x08	0.041876916
251	0x2c	0.23032303
252	0x19	0.13086537
253	0x16	0.115161516
254	0xe7	-0.13086537
255	0x25	0.19368073

sequential/dense_2/MatMul f4 [10, 50]
0	0x3e1cda74	0.15317708
1	0x3d9c100f	0.076202504
2	0x3e24f7fe	0.16110227
3	0xbebe9b65	-0.37227932
4	0x3e54e0e2	0.20788911
5	0xbe41730e	-0.18891546
6	0x3d348f57	0.044082012
7	0x3e23a5d4	0.15981227
8	0x3eca1f25	0.39476886
9	0x3d7a8735	0.0611641
10	0xbabf134f	-0.0014577898
11	0x3ac90977	0.0015337904
12	0x3e8903fe	0.26760858
13	0x3c871c1d	0.016492898
14	0xbd02824e	-0.03186255
15	0x3df325c6	0.11872439
16	0xbdb2def2	-0.0873393
17	0x3ddd30d4	0.10800329
18	0x3e8e7ebb	0.27831063
19	0xb9fa30d1	-0.00047720087
20	0x3e3f29e2	0.18668321
21	0x3d325efb	0.04354761
22	0xbd84c420	-0.064827204
23	0x3e7aa1c9	0.24475779
24	0x3b47c228	0.0030480716
25	0x3dbd4ac9	0.0924278
26	0x3e7ecc92	0.24882725
27	0x3e91c0b1	0.28467324
28	0x3efd2035	0.49438635
29	0xbe081d57	-0.13292442
30	0x3dca7b3b	0.098867856
31	0xbd74713d	-0.059678305
32	0x3e018597	0.12648617
33	0xbdf5be38	-0.11999172
34	0x3ea196cb	0.31560358
35	0x3e5925ae	0.2120578
36	0xbbb3f15a	-0.005491418
37	0x3e2c425e	0.16822192
38	0x3d808dff	0.062770836
39	0xbe9b3421	-0.3031321
40	0xbcf8ff30	-0.03039512
41	0x3eb25f60	0.3483839
42	0x3e4c8deb	0.19976012
43	0x3e534f38	0.20635688
44	0xbe0097ef	-0.12557958
45	0x3e6b87bf	0.23001002
46	0x3e7106d6	0.23537764
47	0x3e3967f9	0.18106069
48	0xbea66b3e	-0.32503694
49	0x3d305c2f	0.043056663
50	0xbcc3b9a1	-0.023892226
51	0x3e2ef446	0.1708537
52	0xbda0cf2e	-0.078520164
53	0xbdfa5e97	-0.12225073
54	0xbe390853	-0.18069582
55	0xbe8de195	-0.27711168
56	0x3d67cd01	0.05659199
57	0x3d831db9	0.064021535
58	0x3e834af7	0.2564313
59	0x3dddfe97	0.10839575
60	0x3e6646a6	0.22487888
61	0x3eb5dde5	0.35520855
62	0xbe5c9d93	-0.21544485
63	0xbe79234e	-0.24329874
64	0xbe21dd9c	-0.15807194
65	0xbea9efa3	-0.3319064
66	0xbeb1b55e	-0.34708685
67	0xbe7f3d14	-0.24925643
68	0x3e0e84a5	0.13917787
69	0xbe8a1392	-0.26968056
70	0x3e6aaddb	0.22917883
71	0x3ea894e1	0.32926086
72	0xbe5cfc56	-0.21580634
73	0x3ec020c9	0.37525013
74	0xbe11f865	-0.14254911
75	0xbf0e6765	-0.5562652
76	0x3dfe077e	0.12403773
77	0x3e8ac5f4	0.2710415
78	0x3d4da897	0.050209608
79	0x3c5a7c89	0.013335356
80	0x3e944806	0.289612
81	0xbd1b501f	-0.037918206
82	0x3e882e7f	0.26597974
83	0x3eb4a02e	0.35278457
84	0x3ebd1a86	0.36934298
85	0x3e5d7b2e	0.2162902
86	0xbd858b75	-0.0652074
87	0x3ec58095	0.38574663
88	0x3e91b580	0.28458786
89	0xbea99d75	-0.33127943
90	0xbe783148	-0.2423755
91	0x3e18e830	0.14932323
92	0x3e9071ad	0.28211728
93	0xbcca5bf3	-0.024702048
94	0xbeb97d57	-0.3622844
95	0x3df7ba59	0.1209609
96	0x3de6fb8d	0.11278448
97	0x3e2955bc	0.16536611
98	0xbe95b1c2	-0.2923718
99	0xbddde95d	-0.10835526
100	0x3e5e53d7	0.2171167
101	0xbe54629c	-0.20740741
102	0xbc10199c	-0.008795168
103	0xbe88ab45	-0.26693168
104	0xbdc93463	-0.09824445
105	0xbd4e8c0f	-0.05042654
106	0x3dbee804	0.09321597
107	0xbe94269e	-0.28935713
108	0xbec1b988	-0.37836862
109	0xbd41a327	-0.047274735
110	0xbe52fb05	-0.20603569
111	0xbe883f48	-0.2661078
112	0x3e57da07	0.21079265
113	0x3e1bfb56	0.15232596
114	0xbe69d767	-0.22836076
115	0x3e7ba19e	0.24573371
116	0xbe83fc2a	-0.25778323
117	0x3e890db6	0.26768273
118	0x3e0deaff	0.13859175
119	0xbe7e978e	-0.24862501
120	0xbe03d4aa	-0.12874094
121	0x3e9cc365	0.30617824
122	0xbdaa6000	-0.08319092
123	0xbddbcb38	-0.1073212
124	0xbda79297	-0.08182257
125	0xbec4be22	-0.3842631
126	0xbe76e5de	-0.24111125
127	0x3ebc2839	0.36749437
128	0xbea216b0	-0.31657934
129	0xbdab66f5	-0.08369247
130	0x3efb91ef	0.49134776
131	0x3d8572bb	0.06516024
132	0x3e2e2931	0.17007901
133	0xbea64e0b	-0.32481417
134	0x3e8b1690	0.2716565
135	0xbe85b70e	-0.26116222
136	0x3e1d0d47	0.15337096
137	0x3d120d56	0.03565725
138	0xbd555b8b	-0.052089255
139	0xbe9dd600	-0.30827332
140	0xbdfcd30e	-0.12344943
141	0x3ea5e8d3	0.32404193
142	0x3d7880a5	0.06066956
143	0xbe6b3b3c	-0.22971815
144	0x3d50876f	0.05091041
145	0x3e720710	0.23635507
146	0x3dd06c9f	0.10176968
147	0xbdd27b4c	-0.10277423
148	0xbd75506f	-0.05989116
149	0xbf07a8bf	-0.5299186
150	0x3e04f12e	0.12982628
151	0xbdaa7256	-0.08322589
152	0xbd5ea949	-0.05436066
153	0xbd71f61e	-0.059072606
154	0xbdcfa927	-0.10139685
155	0xbdb8bb6b	-0.09020122
156	0xbea6b4a8	-0.32559705
157	0xbe3c4660	-0.18386221
158	0xbe0e863b	-0.13918392
159	0xbe805980	-0.25068283
160	0x3e12c43a	0.14332667
161	0xbe8c9191	-0.27454808
162	0xbc32d400	-0.010914803
163	0xbe5607d1	-0.20901419
164	0xbdda87e9	-0.10670454
165	0xbe1f7c11	-0.15574671
166	0xbd6cc7af	-0.05780762
167	0x3ea2e882	0.31818014
168	0xbe50756a	-0.2035729
169	0x3e3d02fe	0.18458173
170	0xbddc1fa0	-0.107482195
171	0xbe7633ea	-0.24043241
172	0x3da6b2b8	0.08139557
173	0xbd032270	-0.032015264
174	0x3b8e4ae7	0.004342425
175	0x3da85e46	0.08221106
176	0x3e8de61b	0.2771462
177	0xbd619718	-0.055075735
178	0xbd0c80c3	-0.034302484
179	0xbddf4a14	-0.10902801
180	0x3e26dadf	0.1629443
181	0xbeb70919	-0.35749128
182	0x3da7e142	0.081972614
183	0x3e601d7d	0.21886249
184	0x3de1f9ec	0.11033997
185	0x3e02e97b	0.12784378
186	0xbd567362	-0.05235613
187	0x3b90fbeb	0.004424562
188	0xbe18dc6f	-0.14927839
189	0xbc3f0591	-0.011659042
190	0xbd653874	-0.05596204
191	0xbe96b3de	-0.29434103
192	0x3d85e13c	0.06537101
193	0xbdd73570	-0.10508239
194	0xbd74f850	-0.05980712
195	0x3eab6820	0.3347788
196	0xbe8c03c8	-0.27346635
197	0xbdaf502d	-0.08560214
198	0xbe8b37a7	-0.27190897
199	0xbd991cf8	-0.074762285
200	0xbe45534d	-0.19270058
201	0x3dd679e2	0.10472466
202	0xbe986c74	-0.29770243
203	0xbe5369f6	-0.2064589
204	0x3e885e57	0.26634476
205	0x3d37ff39	0.044921134
206	0xbe3d7f4c	-0.18505591
207	0xbebdf5e6	-0.37101668
208	0x3d0311a5	0.03199925
209	0xbc74db1b	-0.014944817
210	0x3defd8e0	0.117112875
211	0x3de5d36d	0.11221967
212	0xbd231447	-0.03981426
213	0xbe5a5f47	-0.21325408
214	0xbda0e078	-0.07855314
215	0x3e17407e	0.14770696
216	0x3e74b836	0.23898396
217	0xbde5c2ad	-0.11218772
218	0x3da14eb0	0.078763366
219	0x3e322f20	0.1740079
220	0xbdd500a7	-0.10400515
221	0x3da671ca	0.08127172
222	0x3d0c5ee1	0.03427017
223	0xbe482edf	-0.1954913
224	0x3e0f7371	0.14008881
225	0xbd622e68	-0.055220038
226	0x3d130711	0.03589541
227	0x3bb9b200	0.005666971
228	0xbe48b870	-0.19601607
229	0xbe4688cc	-0.19388121
230	0x3d80738c	0.06272039
231	0x3cebdcf9	0.028791891
232	0x3e037bd7	0.1284021
233	0x3e251d0d	0.16124363
234	0x3d8053d9	0.06265993
235	0x3d6ac089	0.057312522
236	0x3e76a585	0.24086578
237	0xbe2fb9fd	-0.17160793
238	0x3e754eee	0.2395589
239	0x3e1076ee	0.14107868
240	0xbeedca7d	-0.4644355
241	0xbe80acfb	-0.25131974
242	0x3e9c62bd	0.3054408
243	0xbe93a1f1	-0.2883449
244	0xbe33c931	-0.17557217
245	0x3e10d2af	0.1414287
246	0xbe0844ea	-0.13307539
247	0xbe107d54	-0.14110309
248	0xbe2e4d45	-0.17021663
249	0xbd550fa2	-0.05201686
250	0xbe5e9e28	-0.2174002
251	0xbe862d3f	-0.26206395
252	0x3e1140f3	0.14184932
253	0xbe7cbc26	-0.24681148
254	0xbd4164fb	-0.047215443
255	0x3bf645f3	0.007515663

sequential/dense_3/MatMul f4 [1, 10]
0	0xbe510bff	-0.20414732
1	0xbeb45fde	-0.3522939
2	0x3ecc0376	0.3984639
3	0xbf00e77f	-0.50353235
4	0x3ebd8a7a	0.37019712
5	0x3ef1ece7	0.47251055
6	0x3f13f351	0.57793146
7	0xbea9d5e3	-0.33170995
8	0xbedb425f	-0.42824075
9	0x3f008618	0.5020461
